…
                        'epochs': 600,
                        'final_lr': 1e-06,
                        'final_weight_decay': 0.4,
                        'lr': 0.001,
                        'start_lr': 0.0002,
                        'warmup': 15,
                        'weight_decay': 0.04}}
INFO:root:Running... (rank: 0/1)
/home/livia/miniconda3/envs/tf/lib/python3.11/site-packages/torch/cuda/__init__.py:654: UserWarning: Can't initialize NVML
  warnings.warn("Can't initialize NVML")
INFO:root:Initialized (rank/world-size) 0/1
INFO:root:VisionTransformer(
  (patch_embed): PatchEmbed(
    (proj): Conv2d(3, 384, kernel_size=(16, 16), stride=(16, 16))
  )
  (pos_drop): Dropout(p=0.0, inplace=False)
  (blocks): ModuleList(
    (0-11): 12 x Block(
      (norm1): LayerNorm((384,), eps=1e-06, elementwise_affine=True)
      (attn): Attention(
        (qkv): Linear(in_features=384, out_features=1152, bias=True)
        (attn_drop): Dropout(p=0.0, inplace=False)
        (proj): Linear(in_features=384, out_features=384, bias=True)
        (proj_drop): Dropout(p=0.0, inplace=False)
      )
      (drop_path): Identity()
      (norm2): LayerNorm((384,), eps=1e-06, elementwise_affine=True)
      (mlp): MLP(
        (fc1): Linear(in_features=384, out_features=1536, bias=True)
        (act): GELU(approximate='none')
        (fc2): Linear(in_features=1536, out_features=384, bias=True)
        (drop): Dropout(p=0.0, inplace=False)
      )
    )
  )
  (norm): LayerNorm((384,), eps=1e-06, elementwise_affine=True)
  (fc): Sequential(
    (fc1): Linear(in_features=384, out_features=2048, bias=True)
    (bn1): BatchNorm1d(2048, eps=1e-05, momentum=0.1, affine=True, track_running_stats=True)
    (gelu1): GELU(approximate='none')
    (fc2): Linear(in_features=2048, out_features=2048, bias=True)
    (bn2): BatchNorm1d(2048, eps=1e-05, momentum=0.1, affine=True, track_running_stats=True)
    (gelu2): GELU(approximate='none')
    (fc3): Linear(in_features=2048, out_features=256, bias=True)
  )
)
INFO:root:making data transforms
INFO:root:iterations per epoch: 5615
INFO:root:Created prototypes: torch.Size([60, 256])
INFO:root:Requires grad: True
INFO:root:Using AdamW
/home/livia/Documentos/Projetos/climate-clustering/msn_code/src/msn_train.py:443: FutureWarning: You are using `torch.load` with `weights_only=False` (the current default va
…
